assignment1/softmax_weights.npy (npy, 480 bytes, 1 tensors)

array f8 [22, 2]
00000000: fce9 87b2 706f 7abf 6ea6 d4cf c46f 7a3f
00000010: ca02 e870 469f fcbf 449d c87b 359f fc3f
00000020: 50cb c133 dcb0 e1bf cb64 0c3e c2b0 e13f
00000030: b919 88bd 8480 f53f 9cd5 efb5 d780 f5bf
00000040: 0512 a91b 3e83 0340 6234 e73a 7283 03c0
00000050: 7c03 dbd0 61ba f13f a5f2 a704 98ba f1bf
00000060: ddb8 39c2 af1b 1f40 0293 7963 da1b 1fc0
00000070: 3c48 7a81 ea93 22c0 0fdd 0580 ea93 2240
00000080: c32c 64b3 0341 f83f 08c1 7f49 ba40 f8bf
00000090: 60dd 739f 3c14 f13f 1b2b 9294 aa14 f1bf
000000a0: a5d6 7249 a4cb 1d40 653d 208a 8bcb 1dc0
000000b0: 958d 24b6 2be2 1940 9e40 f326 26e2 19c0
000000c0: 3594 0e24 c129 d03f 204a f2e5 9b2a d0bf
000000d0: 5867 7018 841d f23f e2fc 824e 2b1d f2bf
000000e0: 806e 5961 8d09 d6bf 0f24 85c0 a70a d63f
000000f0: faec 8700 8253 d2be 6cfe f2dd ff2d fdbe
00000100: 4c35 a92f 8f30 11c0 84d5 b7f1 9030 1140
00000110: 31ff adaa 5206 cdbf 36b5 e462 bc01 cd3f
00000120: 3722 0ed0 de35 ffbf 8b63 83c2 0f36 ff3f
00000130: 0f4a 48c7 1464 0740 2086 57dd ff63 07c0
00000140: 29f7 250d a29c e0bf 76f4 bedb e99c e03f
00000150: bb82 ad55 f9d8 d83f 1441 8f8c 7fda d8bf
-0.006453933929601249 0.006454247280353804 -1.7888855371858647 1.7888693652437988 -0.5528393755797456 0.5528269969828669 1.3438765910701547 -1.3439557177456214
2.4390833054515064 -2.4391827203567553 1.108003440706141 -1.1080551320912175 7.777037653706626 -7.777200273795417 -9.288898512055418 9.28889846870018
1.5158726699326486 -1.5158026572281091 1.0674406269661958 -1.0675454906037831 7.4488688923208075 -7.448774488656771 6.470869871121427 -6.470848663899373
0.25254848977266714 -0.2526006455965746 1.1322060541774217 -1.1321213785993725 -0.34433302408954347 0.3444003467635079 -4.369307142311523e-06 -2.7827916593946308e-05
-4.2974212119127735 4.2974279182866475 -0.22675546010941042 0.22661547497538387 -1.950651943889296 1.9506986234830233 2.9238677567420903 -2.9238278667769606
-0.519120240860251 0.519154481116529 0.38824303976984326 -0.38833607412836213
