assignment1/softmax_weights.npy (npy, 62848 bytes, 1 tensors)

array f8 [784, 10]
000000 c4 b2 d1 db 4b f5 df bf 7b d4 89 78 37 48 d7 bf
       -0.49934669939720444 -0.36378275653198217
000010 2f fe c9 17 a5 f2 e8 bf f6 52 de 43 5f f6 da 3f
       -0.7796197380666338 0.4212873614099374
000020 d2 c7 04 42 db d4 cd 3f f1 5e ab 45 4e 7e e8 3f
       0.23305836413925235 0.7654181824427423
000030 d5 d7 39 0e 8c 37 f9 3f 49 cb 9f c6 aa a2 bf 3f
       1.5760613017750889 0.12357585286353613
000040 5d 1b 8f 9d 20 c2 dd bf 23 31 c5 f6 5f f2 cb bf
       -0.4649735964452953 -0.21833419370012405
000050 4c f2 33 7c 5e 23 c3 bf 28 ca 30 a7 e8 f3 f0 3f
       -0.14951687874408248 1.0595480471498693
000060 ff 1d cf 2d dc 40 d9 bf 02 ce 5c 57 aa 1a 89 3f
       -0.3945837447504061 0.012257891455738527
000070 1a 68 86 04 9d 97 f7 bf ba 2f de e3 7f 88 d1 bf
       -1.474514978099711 -0.27395627262807987
000080 79 b0 dc 61 97 ff 04 c0 b4 f3 b0 2d 1e 4c ec bf
       -2.624800457522778 -0.8842917339712728
000090 03 32 d5 5c 14 54 00 40 a6 b8 75 26 2d 16 c7 bf
       2.0410544636308727 -0.18036426904604247
0000a0 2e 15 52 97 39 a2 b9 bf b6 09 1e 27 d0 00 dd bf
       -0.1001316065249582 -0.4531746274953109
0000b0 ae 6b cc 9d 4e ab f4 3f 82 91 db b1 7c c2 e3 3f
       1.2918230213169681 0.6174910997183789
0000c0 aa 7d 00 ac d5 92 f5 bf 1b 4f 15 43 21 52 f8 bf
       -1.348348304636469 -1.5200512524069782
0000d0 b0 3d 58 07 7c 04 f9 3f f2 10 dc 31 4b 1a d2 3f
       1.5635948454763415 0.2828548418913349
0000e0 b5 2b c5 ab 44 03 db bf db cb 5f 52 f3 23 8e 3f
       -0.4220744779055921 0.014717007590638367
0000f0 c7 60 c4 d1 06 61 f4 3f 7d 98 90 04 e6 2b f4 3f
       1.2736881441142474 1.2607174089730784
000100 80 6a 12 ca 23 68 ee 3f 70 b1 a4 51 9a 00 da 3f
       0.9502123781888514 0.40628679249746025
000110 1d 0c e6 41 ea 44 fb bf ce 29 3f b3 74 0d c7 bf
       -1.7043249677815375 -0.1800981402614767
000120 b4 14 07 eb a4 29 e0 3f e9 13 4e fb 66 a1 d7 3f
       0.5050835218795755 0.3692262128973299
000130 3e 13 e6 24 33 00 05 40 37 cb 07 b9 89 ee d3 3f
       2.6250975496972435 0.3114342028558669
000140 49 d5 21 45 af b1 f5 bf b9 d2 b1 88 e3 d1 cb 3f
       -1.3558800411677387 0.2173427979902465
000150 7b 51 40 6a dc 1e 00 40 0a c0 ac db cf 54 f2 bf
       2.0150688458326704 -1.145706041435917
000160 b6 d5 1c 24 7f 33 13 40 41 8d c9 dd 05 b9 e7 bf
       4.800289692172944 -0.7413358051093512
000170 9b cd 60 04 45 37 e3 3f a7 1a 19 8a 2b 0a f7 bf
       0.6004967771063322 -1.4399829287009795
000180 33 11 ea 07 46 14 05 c0 5a 0f ce 12 8f 7b cc bf
       -2.6348991983706127 -0.22252071779450483
000190 86 83 56 09 7b 23 ec 3f ca 02 48 be e4 ca f0 3f
       0.8793311293012358 1.0495345528471938
0001a0 10 d7 96 cb 26 3d f4 bf cb 5b a2 8d db 1d fb 3f
       -1.2649295761779662 1.6947894604288531
0001b0 80 a0 e8 60 74 74 05 c0 f8 f2 47 de d7 e4 00 c0
       -2.681862599467479 -2.1117398610789415
0001c0 b9 f2 ed 35 21 00 ca 3f ee d8 b5 f5 92 c3 ef bf
       0.20312895901942854 -0.9926237868337731
0001d0 11 01 46 d8 33 76 db 3f 95 94 37 af 83 05 da bf
       0.42908950920538397 -0.4065865717987632
0001e0 7c d6 50 07 82 d7 d0 3f 70 97 3c f1 6f a0 de 3f
       0.26315355982237754 0.47854231413145154
0001f0 f7 da b8 2a 60 cb ea bf 8d 00 5c 15 71 0e f1 3f
       -0.8373261293807833 1.0660258135176577
000200 98 e9 15 df 82 26 f6 3f 96 41 ce 7c ab 5b f2 bf
       1.3844021524697379 -1.1473803401205251
000210 2a f1 7d 19 be 4c ed bf 2b 73 04 6f ed 8c f6 bf
       -0.9156179902925363 -1.4094061218849656
000220 38 4e 39 c4 ee fc d5 3f 72 b6 d4 60 8c f9 75 bf
       0.34356278574452714 -0.005364940979502119
000230 da d6 91 ec b7 d8 ed 3f 03 1b 5b 3d 79 33 e9 3f
       0.9327048893453267 0.7875333975178765
000240 e8 5b 44 af 88 6b dc 3f d3 d2 3e 02 2f 7e f3 3f
       0.444063349875647 1.2183065498076544
000250 64 d7 d7 b3 2e 8d fa bf 0e 9f ff dd 24 5e ef bf
       -1.6594683671114234 -0.9802421890171631
000260 1d 70 ee a6 60 16 d2 3f c2 ee 4c 81 2e c0 e1 bf
       0.2826158170880733 -0.5547096753502603
000270 3e 0b 6d 0b 92 88 ef 3f c3 a1 0e e6 39 0a f8 bf
       0.9854212020075932 -1.5024966227157257
000280 6c bb 24 8a 36 d9 fd 3f 77 47 c9 6b 80 2e fc 3f
       1.8655305286626698 1.7613529405975592
000290 38 a5 a5 30 57 44 f6 3f 29 71 60 ac 1d 14 ee 3f
       1.3916847133899193 0.9399555556042617
0002a0 0a 86 ca f0 47 2c 03 c0 23 f7 e1 8c 65 4d e5 bf
       -2.396621590786485 -0.6656978370299139
0002b0 fe 4e 35 44 49 ec c4 bf 03 98 0d ec ba 72 da 3f
       -0.16346088247757246 0.41325257350979444
0002c0 c2 46 60 86 88 d7 c0 bf 75 38 97 4e b2 b4 02 c0
       -0.13157755433399215 -2.338230718603024
0002d0 4a b0 48 f7 d8 26 00 40 b6 4c 50 ba bd 73 f1 3f
       2.0189685172136125 1.09075711039331
0002e0 8d ef 7d 53 ad 46 f4 3f 78 28 3b 3b 9a 32 e9 3f
       1.2672551404384393 0.7874270588738588
0002f0 3f aa a3 71 62 c5 f1 bf 02 b4 57 d1 fd a0 01 c0
       -1.110689586547451 -2.203609118927944
000300 bb 4b a8 bd 21 73 0e 40 cd d7 68 17 a4 57 04 40
       3.8062166993126687 2.542793448340467
000310 ae d3 b3 f7 25 58 0a c0 79 00 a8 ee 90 2a ea bf
       -3.2930411674264723 -0.8176960622077011
000320 b7 d0 20 97 3e 1a c0 bf 40 e0 97 0c b7 9f 05 40
       -0.1258009183817472 2.7029858573769445
000330 e0 23 be 25 43 30 01 40 a6 dc c0 f0 44 86 ff 3f
       2.148565573563687 1.9702805904796974
000340 44 2b 33 6e 9d 17 08 c0 f9 ed 8c 3d 73 c0 e2 bf
       -3.0115307435384313 -0.5859924509199451
000350 25 b0 63 54 48 84 fa 3f 05 1c 9c 6f d4 95 fb 3f
       1.6572955414258186 1.7240795478589928
000360 49 24 bf 43 35 99 1d c0 27 ca cf 40 f3 da e5 3f
       -7.399617250958792 0.6829773202756017
000370 60 32 58 96 f7 d8 fe 3f 46 31 79 a1 af f0 06 40
       1.9279704926331291 2.8675224890813835
000380 4a 3f 99 f1 79 ee 0b 40 e3 22 2a 9e 08 20 bc 3f
       3.4914435267345754 0.10986379491272262
000390 06 b7 b3 6d 90 1b 03 c0 f2 a6 a4 ef 5d 46 05 40
       -2.388459069296803 2.659358856403622
0003a0 22 91 70 6e f6 0c 12 c0 a9 5f f5 1a 6f 09 08 40
       -4.5126588112073325 3.0046064478046515
0003b0 2e 28 bb b9 3d 10 16 c0 c3 83 ec 9d 25 4d eb 3f
       -5.515860464141992 0.8531673511935128
0003c0 a7 62 98 34 db 7c e7 3f 84 11 48 de 47 78 6d 3f
       0.7339912440539437 0.0035973933866008685
0003d0 46 e7 4a fc a9 69 15 c0 1e c7 c6 2b f8 16 f0 3f
       -5.353187505790464 1.0056077680605493
0003e0 0a c0 4c 14 06 01 01 40 dc 90 61 50 17 f0 d3 bf
       2.1254998765871322 -0.3115289959880678
0003f0 02 1a eb d8 8e 06 16 40 3e ca 15 a2 eb b4 e2 3f
       5.50640429434725 0.5845850148892351
000400 86 52 aa 21 de 0c 11 c0 40 eb f4 50 1b 0f f0 3f
       -4.262566114445354 1.0036881601688066
000410 11 62 97 bc 28 d3 0f c0 a7 14 70 a9 e1 e8 f2 3f
       -3.978105042810292 1.1818558329262403
000420 d2 7b b8 f1 5f 73 df bf eb 4e 86 b3 3c cf c7 bf
       -0.4914169178536528 -0.1860118748269238
000430 98 d8 7a d3 c6 2f 15 40 75 be 03 0b d5 63 f7 bf
       5.296656898854188 -1.4618730955370698
000440 22 96 36 78 4f 07 06 c0 9e f1 4a 59 64 01 e9 3f
       -2.753569544950339 0.7814199203490266
000450 11 c8 26 94 38 ac 0a 40 69 52 6e 69 a2 67 00 c0
       3.3340922903380563 -2.0506027447502686
000460 b8 79 d2 11 c5 06 f0 bf 79 c3 73 55 16 ef f7 3f
       -1.0016527839830882 1.495870908544218
000470 2e 3a 3a 79 f7 35 03 40 1b bc b5 16 f9 06 0d c0
       2.4013509245771933 -3.628404786511522
000480 f3 74 ec e5 55 f5 e6 3f f8 28 ac 30 33 b4 0b c0
       0.7174481859871363 -3.4629882624186585
000490 cf cc e4 6f 97 14 12 c0 01 ca 97 03 48 fb f3 bf
       -4.520108936633917 -1.248847974810474
0004a0 72 8d 93 8a cb 40 23 40 0a fd 67 ea 61 a6 ac 3f
       9.626552896987707 0.05595689760593288
0004b0 ef d4 7a 9e e7 f2 02 c0 21 d3 ca 06 10 aa a0 bf
       -2.368605840800789 -0.03254747469819664
0004c0 de 11 dd ae 57 a6 0b c0 23 cc 02 e1 49 ca f7 3f
       -3.4562219296660563 1.4868868627061225
0004d0 b9 71 05 3e 65 86 0f 40 8c c9 34 35 fa 3b f4 bf
       3.940622791806359 -1.2646429136626436
0004e0 c1 83 7a 34 6b 36 13 40 fd cd 8d 3a 49 1b e8 bf
       4.803143329599096 -0.753330816615232
0004f0 cd 74 9a 2a 51 64 01 40 82 19 7e 23 6e d9 00 40
       2.1739829376589115 2.106167104039913
000500 77 40 e2 d7 9a 7c 09 40 1a a8 c8 a4 0d e6 e9 3f
       3.185842215149076 0.8093326776918304
000510 6a 16 ad 68 2c 74 d8 3f 82 af bc 6f 79 29 fa 3f
       0.3820906660297171 1.6351255764702448
000520 80 59 de e4 97 26 d2 3f f2 d7 93 b8 7c 71 f1 bf
       0.2836055502933945 -1.090206833845056
000530 b0 fc 49 e4 65 3d 04 c0 2e 26 56 79 b9 b9 fe 3f
       -2.529979499347597 1.9203428973872962
000540 f3 c4 ac 5f a6 ba fd bf 95 c9 1d 6f 92 20 e1 3f
       -1.8580688226032265 0.5352260751954413
000550 52 0a 0e 48 95 31 d0 3f 75 df db a5 98 07 fa 3f
       0.25302631413083987 1.6268545607435645
000560 9a 9f fd b6 05 37 11 40 51 0d 2c 9f 6d fc 06 40
       4.303732737760493 2.873255961925374
000570 03 90 a5 ea 27 fd f8 bf 58 db 25 77 aa 9d fb 3f
       -1.5618056455505218 1.7259926466192237
000580 2c df ab ab 0c d7 0a c0 76 aa f1 07 d7 b5 f2 bf
       -3.3550046359850025 -1.1693945226967606
000590 73 97 a0 b5 c3 ba 0e c0 5f ec 26 a0 df 88 f2 3f
       -3.841193598712317 1.1584163909854153
0005a0 80 61 92 11 ae 64 f4 3f 8c 3d 71 b5 5b 17 f1 bf
       1.2745800672911116 -1.068202694663202
0005b0 17 12 15 95 42 07 ee bf fa b8 42 e2 ed 10 b8 bf
       -0.9383862411273779 -0.09400831960622105
0005c0 19 fd 82 94 19 93 10 c0 c0 aa da 58 6c c9 56 3f
       -4.143652267928041 0.0013907964779870524
0005d0 36 c9 bc 99 2f 0e 01 40 a7 ba 3d 56 92 d6 01 c0
       2.1319267283189687 -2.2297713029468755
0005e0 dd b7 fe bf b5 eb 13 c0 d8 bd 8e 1e da e8 ed 3f
       -4.980185508653418 0.9346743199184244
0005f0 ae 85 9e 75 db 3c ef bf 76 56 5b 24 77 c8 fc 3f
       -0.9761788651705297 1.798941747683242
000600 7a e9 dc 19 06 52 f4 3f a2 f4 95 46 2b d3 e7 bf
       1.2700253496428489 -0.7445274714115337
000610 80 59 2f 84 fb 97 f3 3f f0 2c 64 98 92 88 f4 3f
       1.2246050990557649 1.2833429291520666
000620 6d 02 a2 42 5b bd e7 3f 07 f4 29 32 28 ff 01 c0
       0.7418648053572504 -2.249588386445342
000630 e8 65 2d 60 0f a7 cd bf 8f e5 80 30 96 4e f2 3f
       -0.23166076847228045 1.1441862005870893
000640 a4 dc 80 21 48 6d 02 40 84 72 cb f6 51 a7 fe 3f
       2.3033602349710964 1.9158496513765906
000650 1f 8a 7c b1 c7 62 f1 3f b7 c6 88 16 38 4e cb 3f
       1.0866162236276364 0.21332455730730768
000660 dc 21 36 cb c9 39 f1 bf 4d 24 e6 f8 c7 74 ef bf
       -1.0766084611842563 -0.9830055104549814
000670 00 f9 6a f5 27 2d e6 3f f5 58 fd 59 d7 7b fa bf
       0.69301221783806 -1.655234672090555
000680 cf 4a 33 e9 59 c3 ff bf 47 8a 76 ab 44 57 fd bf
       -1.9851931676281998 -1.8338057229781428
000690 d5 f4 c8 f7 86 fa d2 3f 00 a2 c0 e4 f8 48 01 40
       0.2965409679198506 2.1606309767996663
0006a0 7d f7 4c 25 68 4f ed bf d7 53 63 a5 4a cc fa 3f
       -0.9159432152298305 1.6748758755177187
0006b0 fd 04 65 06 3a e5 df bf 89 e0 75 4a 3e 8f 02 c0
       -0.4983658850142801 -2.3199430291388734
0006c0 58 60 18 fc 88 99 91 3f 23 a0 56 48 1a cc f4 bf
       0.017187252413436077 -1.2998297525136955
0006d0 81 36 ac a5 dc 67 fd bf db 5f 23 c0 18 d4 e3 bf
       -1.8378569099035362 -0.6196407082270484
0006e0 2e 7a 98 ab 12 f4 ee bf a7 c5 0d bb 77 97 ee 3f
       -0.9672940589405863 0.9559897092241741
0006f0 5c a4 cf c7 71 68 b2 bf e0 8b 03 a9 6d 69 01 c0
       -0.07190619590950703 -2.176478691502311
000700 75 2a 70 0f 4a 60 f0 3f db 11 70 e0 d5 c5 f7 3f
       1.0235081294109964 1.4857996718502509
000710 ce 88 94 22 9b 70 d3 bf d6 21 2b e1 ef f3 c9 bf
       -0.30374792458509325 -0.20275686735682424
000720 fd 00 93 cb a5 59 f3 bf 10 66 75 73 d0 3e 00 40
       -1.2093866302603253 2.030671026249145
000730 01 bf 13 1c 4e 4e 09 c0 2d 44 b1 b2 34 74 c5 bf
       -3.1632349198843035 -0.16760882115571132
000740 1b d3 25 8a bb a7 ff bf 1d 0b 40 06 70 2a cb bf
       -1.97845033611265 -0.2122325926321417
000750 2a 5d ed 92 e4 9b e6 3f d3 9c 6f ad 2e 0a 03 40
       0.7065298909828119 2.3799718427359067
000760 3e 8c 68 22 7a 72 c3 3f 9f 04 0c 00 7e 28 d1 3f
       0.15193106346223034 0.2680964470346882
000770 b0 12 5b f3 75 e4 de 3f ad 1b 39 37 29 c5 02 40
       0.48269413724146215 2.346270018987943
000780 ae b1 2d c2 76 7e ff 3f 22 2d 56 16 23 6f fe bf
       1.96837497569059 -1.902133071186491
000790 77 d2 66 11 c8 1c 18 c0 57 ae 49 68 63 91 76 bf
       -6.028106948757901 -0.0055097468472059185
0007a0 ca 8c 6f c3 01 6a 04 c0 3f c9 63 94 7c 43 f0 3f
       -2.5517611759583803 1.0164762302852777
0007b0 5b bc 43 51 2f de 02 40 e3 bf a9 b7 0f a7 af 3f
       2.3584886883541407 0.06182145230275162
0007c0 56 e8 02 63 ac 90 04 40 0a 90 61 43 1e cd d0 3f
       2.570641301656944 0.2625194223421664
0007d0 62 00 f5 49 83 a7 be 3f 32 f6 7d 3e 3b b1 d0 bf
       0.11974354320136762 -0.2608173475526626
0007e0 5a b4 ce a5 ed 01 06 c0 5e 1c ce 31 f9 c6 b6 3f
       -2.7509415582376677 0.0889735933870823
0007f0 c5 80 0c a6 ec 1b de 3f 47 4d b1 07 3b d1 f5 3f
       0.470454370648451 1.3635816860667818
