assignment1/softmax_weights.npy (npy, 62848 bytes, 1 tensors)

array f8 [784, 10]
000000 47 fc 60 d0 96 52 eb bf 05 d3 9e 12 64 fe f0 bf
       -0.8538316793345836 -1.0621071555480637
000010 11 f9 72 0c 69 fd c1 bf 5e 88 63 44 a1 db f3 3f
       -0.1405459700380978 1.2411205932080729
000020 4d f0 3f 17 da 62 d2 3f 26 3b 35 bf 47 af f1 bf
       0.2872834422157709 -1.1052930325565256
000030 07 9f 2a 72 b9 3c f7 3f ed 06 e8 ad 0f 94 d3 3f
       1.4523252925518493 0.30591194136660144
000040 f5 2e 4a 69 b8 60 e1 bf 08 b9 da f3 aa f5 dd bf
       -0.5430566841546055 -0.46811937154679173
000050 96 dd 87 9f 29 9d e9 3f 8d b2 b0 3d 74 99 ec 3f
       0.8004348865351172 0.8937321858298489
000060 df 94 54 f9 32 22 d9 bf 31 3b 88 50 64 04 f5 3f
       -0.39271234844848196 1.3135722299372896
000070 ba cb 24 ad 17 a0 d9 bf c9 6e 1a 01 7a ab e1 3f
       -0.4003962698799871 0.5521821996257695
000080 92 73 99 fc f6 6c 07 c0 df ad 9e 60 93 10 e8 bf
       -2.928205464776007 -0.7520234000307332
000090 7c db 68 c6 97 8e fc 3f 19 13 50 c0 b5 b3 cb 3f
       1.7848127127051319 0.2164218129184057
0000a0 a8 42 ed a3 64 6a e7 bf e7 71 b2 01 87 cd f9 3f
       -0.7317374421782761 1.6126775804797207
0000b0 04 30 31 5c b3 90 00 40 1d 6d ba d0 d4 79 e8 3f
       2.070654602290235 0.7648719860766594
0000c0 66 f5 6a 8c f3 49 e1 bf 65 3e 12 41 3e d2 e2 bf
       -0.5402772657904904 -0.5881644507334839
0000d0 9a 3e be cb 54 64 f5 3f ed ca ec 47 04 b4 e4 bf
       1.336994930144931 -0.6469746975693319
0000e0 27 88 6b 02 1b 7c d7 bf 82 8d 5a 03 60 ce e6 bf
       -0.36694979893047946 -0.712692266988981
0000f0 cf 9e b2 05 f8 5c e1 bf 74 cd 26 d5 67 9b d2 3f
       -0.5425987349780942 0.2907352048452687
000100 fa 6f b2 ca 70 2b db bf 69 17 82 88 8e 16 e5 3f
       -0.42452640337592096 0.659003512017745
000110 b0 96 b0 6c 82 76 05 c0 a6 89 09 55 fa 62 fb bf
       -2.6828659526243754 -1.7116645166175686
000120 5f 15 40 ad 31 b9 d9 3f 00 6e cc d2 e7 48 84 3f
       0.40192834776856573 0.00990468132072575
000130 29 a0 97 b8 b7 70 06 40 40 e5 6b 25 08 83 a6 bf
       2.805037920119521 -0.043968443458604956
000140 2a 4d a9 3d e4 8f 00 c0 c0 e2 b8 fd 8c ad f8 3f
       -2.0702595536510175 1.542370787718184
000150 a8 79 90 1a 94 3b 05 40 d2 ec 8c 0f 9e 9c a3 bf
       2.654091079267534 -0.03830427112412739
000160 18 0c d6 95 99 81 00 40 0c 30 24 b9 97 96 e4 bf
       2.063281221956924 -0.6433828941385413
000170 d6 2b 23 d4 f7 c3 e7 3f d7 b2 80 16 13 d1 d3 bf
       0.7426718848522522 -0.3096358985665523
000180 e8 95 1a 01 28 58 08 c0 f9 38 b1 8a d8 5e e6 bf
       -3.043045052169635 -0.6990778645356662
000190 68 16 b7 47 e4 3e b9 3f d2 85 ca b7 c7 db d2 3f
       0.09861590147837662 0.2946643156847958
0001a0 62 98 42 19 d5 87 da bf 7b 7a d0 79 90 e2 f5 3f
       -0.4145405527764351 1.3678135641454492
0001b0 c5 9f 27 82 36 10 f1 bf 9c 5b ed 90 e6 f3 fd bf
       -1.0664582332774313 -1.8720460568635877
0001c0 9a d1 0c f0 0e 24 dc 3f 2a d2 0f 2f 80 10 00 c0
       0.4397008270491597 -2.0080569912627384
0001d0 93 49 65 67 c4 4e fd 3f 81 e6 fc 52 12 34 f1 bf
       1.831730274094842 -1.075212787791685
0001e0 4f 1e 21 61 f2 70 ef 3f 20 95 bd b2 54 ed fb 3f
       0.9825374505098327 1.74544210262804
0001f0 5d 7c 05 30 66 88 ea bf 71 22 f6 a7 76 fb 02 40
       -0.8291502893370183 2.3727849122990894
000200 04 26 07 81 3f c5 e1 bf a9 91 da 05 9d d8 e7 bf
       -0.5553281326367032 -0.7451920618373623
000210 e1 3d c6 93 81 5e e3 bf 49 95 51 ce 90 0f df bf
       -0.6052863966196435 -0.48532505176838875
000220 d1 ec bf c6 11 20 fe 3f e5 ac c7 eb d7 f9 fe bf
       1.8828294528637353 -1.9359969339519065
000230 ba 18 56 56 11 c9 ed 3f c9 59 06 25 ca b9 ef 3f
       0.9307943998581074 0.9914293978825351
000240 3e 5c d6 4e f7 cb ef 3f 80 54 7d 5b 70 7b fb 3f
       0.9936481990615744 1.7176364492236473
000250 68 a2 93 7e e9 74 f5 bf 47 71 19 cf 8d 7c 00 c0
       -1.3410429901506635 -2.060817354167884
000260 b3 81 06 1b a5 aa d9 3f 79 e8 4b e7 48 ed eb 3f
       0.4010403407974323 0.8727154271612242
000270 64 7e d7 e3 1e 42 e7 bf e1 66 bc b0 86 c0 f2 bf
       -0.7268213701281181 -1.172003450751099
000280 5f 45 1f e2 62 5e 04 40 71 c0 78 94 19 d8 01 40
       2.546087042407336 2.2305175399160864
000290 fb d6 d6 1a 5e 43 08 40 99 a8 30 5a f7 c3 d5 3f
       3.03289433448924 0.3400858288538387
0002a0 18 c4 09 c8 3c d7 eb bf 70 bd 64 c6 a1 2e c2 bf
       -0.870024100017079 -0.14204809367354754
0002b0 ae 27 59 ca 95 57 fe bf 50 33 da 87 96 64 e0 bf
       -1.8963830856541608 -0.5122788098684428
0002c0 02 8b 19 4d 10 1d 08 c0 91 a9 5a 1c a3 60 c8 bf
       -3.01419124826623 -0.1904491318176267
0002d0 73 72 8b e7 bd ed 04 40 c4 e6 54 f7 ac d1 ec 3f
       2.6160848702841633 0.900595171994802
0002e0 e2 fc f4 29 01 b5 f7 bf 95 6a 06 12 67 37 f6 3f
       -1.4816905631012607 1.3885260299781852
0002f0 9d b8 df 63 73 f3 ee bf 94 0f ac 51 ef c9 04 c0
       -0.9672181082403487 -2.5986009960779004
000300 2e 5b bd 40 ea 54 13 40 c4 32 07 3f 59 5d e1 3f
       4.832924853856452 0.542645094968599
000310 5a f4 11 71 8f 1f 11 c0 68 20 6b d3 0a 1f e8 3f
       -4.280820624085289 0.753789341856657
000320 fd 07 ae a7 4f fc f7 bf 95 cc 91 8e d1 19 0c 40
       -1.4990994024269633 3.5126067293400163
000330 6b 0c 90 3a 13 16 18 40 25 0c 20 13 0a 15 01 40
       6.021557726900123 2.1352731222300627
000340 d3 cf 5b 1c a1 c5 1f c0 99 8c a0 51 de 3c ef bf
       -7.94299740133643 -0.9761802286415274
000350 3c 50 5d e3 bd 32 10 40 36 0c f7 51 6c e7 d6 bf
       4.04955249077835 -0.3578749466361758
000360 66 0a 95 80 5f 5a 1f c0 8d 2d b4 1f d6 fd d9 3f
       -7.838254937264173 0.40611794563366105
000370 d0 3c 43 ac 98 12 0d 40 2f 0e a9 44 bc 0e 12 40
       3.6340802629489204 4.514390061205218
000380 69 4a 48 97 29 46 11 40 74 68 55 57 44 71 00 40
       4.318518031871101 2.0553061316432437
000390 c7 af d2 77 56 38 e0 bf ec 22 7f ea 2a 8b f3 bf
       -0.5068771686833252 -1.2214764747642972
0003a0 b0 0a 1a d0 2d 4c 18 c0 df d1 e4 e8 ca 72 fb 3f
       -6.074393512334311 1.7155255410590298
0003b0 0a 3f c8 1e b9 dc 16 c0 f2 57 07 1f ec ab d7 bf
       -5.715549927684842 -0.3698683074011334
0003c0 87 54 f5 67 6f 33 d8 3f d2 9e f3 ce e3 27 d6 3f
       0.3781393542497615 0.34618468484994225
0003d0 d0 08 e0 7a 9d 84 1b c0 be 25 21 77 7a 02 01 40
       -6.8795069884528885 2.1262101466170114
0003e0 07 b2 69 c2 24 b3 13 40 d1 ce 28 c9 8f c3 0a c0
       4.924944913579117 -3.3454890933588577
0003f0 b5 aa a9 ca 17 ed 1b 40 43 12 e8 77 c5 3d db bf
       6.9815360704475795 -0.42564522466299
000400 77 01 90 29 ae c5 11 c0 c2 a0 81 49 9f 2b e7 3f
       -4.443047189154064 0.7240749774619177
000410 d8 79 0d 1d ea e8 12 c0 12 58 e8 37 d8 e4 02 40
       -4.7274555720782345 2.3617405288487214
000420 77 24 7b 9c 91 77 f4 bf 19 5e e1 ac e2 e9 da bf
       -1.2791916000881238 -0.4205252350124922
000430 da bd e6 f0 a6 75 21 40 68 db dc 0c 70 08 0c c0
       8.729789283911419 -3.5041199688816285
000440 b3 9c 67 4d 7e 75 13 c0 c0 14 85 15 d8 c5 fc bf
       -4.864739617775899 -1.7983017769450242
000450 38 f7 68 50 33 bf 16 40 98 2f 0a 7e d6 0e e8 3f
       5.68671918526325 0.7518112622942565
000460 9c e3 11 dd 86 53 fb bf 3d 7f b2 9e bb 09 fb 3f
       -1.707892287782875 1.6898761939155087
000470 77 d8 f7 2b 80 6d fb 3f 0e b9 b9 9d d3 ea 14 c0
       1.7142335622316105 -5.229322876415848
000480 6a b9 ab 0d ee fd 17 40 b7 2d 48 7c 36 72 08 c0
       5.997978414159983 -3.055767985298839
000490 35 16 26 ba 1e a6 16 c0 b3 3f 67 b6 be 35 f6 bf
       -5.662226589750891 -1.3881213307504197
0004a0 3f ba 0c ff 64 1b 25 40 29 86 53 cb 68 0e de bf
       10.553504915527013 -0.469629477082068
0004b0 dd 01 8e ed 18 87 10 c0 1d 4d 3b d0 df 96 dc 3f
       -4.1319310300754895 0.44670863471147176
0004c0 ba 84 55 c7 17 f3 18 c0 5f 43 af 34 48 3c f3 3f
       -6.237395395846017 1.2022172983162915
0004d0 5d ec c2 12 ca d5 06 40 62 a1 59 c4 86 68 12 c0
       2.8543893304572934 -4.602076595278364
0004e0 b7 cb 75 de c6 db 11 40 17 d1 16 ec 4d 82 f0 bf
       4.4646258124729945 -1.0318125936729012
0004f0 92 f2 24 b0 a0 54 03 40 14 b4 28 b0 c3 65 d8 3f
       2.41632211315875 0.38121120646502615
000500 f9 32 8f 23 6c 58 13 40 a6 57 7a 26 6f dc fd 3f
       4.836350017180615 1.8663169386904683
000510 71 6a e0 b8 95 4d e9 3f 64 59 06 17 2e c9 00 40
       0.7907208071586195 2.0982324408352486
000520 d3 cb fd b4 33 01 f5 3f 2a 08 bb 12 a8 dc e9 bf
       1.312793452260611 -0.8081856122810269
000530 ae 44 1a c9 60 1a 17 c0 7b e1 59 79 f4 66 db 3f
       -5.775759832599915 0.4281588730878167
000540 76 ce f5 1e 75 a0 0a c0 a9 10 d0 5e bf 52 e3 3f
       -3.3283483904613673 0.6038510181247335
000550 5d f8 4f 0b 6c 90 01 40 99 40 70 10 df 46 09 40
       2.1955185779361686 3.1596051487213797
000560 0e c5 71 4e 61 1b 20 40 da 73 66 a0 9e eb 12 40
       8.053476764095219 4.730097299817283
000570 5c ff 32 12 b0 4e 0c c0 ad c8 64 75 68 55 e2 bf
       -3.5384217664540483 -0.5729257862897349
000580 66 0a 9d f2 fa b9 19 c0 08 1d db 66 a0 07 f0 bf
       -6.431621352038382 -1.0018619554337551
000590 5a f4 d3 d2 c2 90 14 c0 4e da 74 0a e7 ab a3 bf
       -5.1413681928507575 -0.038420887018607006
0005a0 ad f9 e9 de 56 4b f9 3f 89 71 f4 69 c0 48 e3 3f
       1.5808933932854459 0.6026308125906762
0005b0 73 33 62 f8 f0 4a f3 bf 0f 9c 05 cc 19 2f ca 3f
       -1.2057962133869438 0.2045624014092202
0005c0 7b 38 c9 54 11 13 15 c0 1e 75 f1 87 97 3f d4 3f
       -5.268620800763638 0.31638134265615914
0005d0 e5 6c 79 55 42 57 15 40 bb 9d a2 a5 3d 08 01 c0
       5.3352139811861194 -2.1290238323451525
0005e0 09 d1 5a 44 60 ee 11 c0 94 6c 09 c8 c5 7a e3 3f
       -4.48278910450268 0.6087368876427655
0005f0 c7 3e d3 d2 04 80 f0 bf 5d 19 8e 89 43 85 02 40
       -1.031254600082251 2.3150702234735676
000600 fc 03 56 10 83 01 db 3f 87 ca 1c f9 22 88 fe bf
       0.4219672832041963 -1.908236477943008
000610 e8 11 4e e2 cf c2 f2 bf 78 d4 35 d5 e4 71 e3 3f
       -1.1725615348851708 0.6076530613196516
000620 d5 b4 9d 22 4d 9e fa 3f bf 7d 0d 6c 7b 20 07 c0
       1.6636477806271632 -2.890860408937186
000630 4e ed b8 d4 61 a3 f0 bf 5c 4a 0b 80 8d f1 c9 bf
       -1.0398882207362763 -0.20268410446313367
000640 5c aa 24 d3 a9 e6 04 40 78 18 ec 50 f8 e3 0e 40
       2.612628602558557 3.861313469128671
000650 0a 4b 55 4f ca 4b ef 3f a6 88 d5 c5 d6 4b 9a 3f
       0.978001742313013 0.02567992765887852
000660 91 6c e2 da bd 6f c4 bf f2 ea ff b1 14 62 ea bf
       -0.15966008365362375 -0.8244727589184022
000670 cd 85 aa 6c 1b af e7 bf 5e 72 6e d0 99 39 fa bf
       -0.7401253816971632 -1.639062704263004
000680 d8 00 02 3a 8c e6 fb bf 6c 9e fa a8 ba 88 d8 bf
       -1.743786074250286 -0.38334528447965144
000690 3c 96 37 e4 fb 68 c1 3f df b2 66 d9 59 e1 03 40
       0.13601635592856265 2.485034655043236
0006a0 e0 00 16 ca b5 f5 e9 bf 0d 4e 7f 99 b2 21 01 40
       -0.8112439105025508 2.1414539329505318
0006b0 d5 e3 40 54 8f d8 e9 bf 19 28 3f b0 14 ba dc bf
       -0.8076855321479522 -0.44885747157661765
0006c0 57 05 fa b7 51 82 ec bf df a9 ec 0a 68 6c 02 c0
       -0.8909081071180179 -2.3029328206514346
0006d0 70 5b db 23 45 3d 01 c0 2f 02 2f fe c6 51 c0 bf
       -2.154917030460119 -0.12749564563093105
0006e0 14 9e 76 44 40 12 fb bf 89 ab 75 3c de 38 f3 3f
       -1.691955821452102 1.2013838159279848
0006f0 15 c7 1d 5a 28 15 05 c0 50 b8 09 32 c5 21 e4 bf
       -2.6353308716142103 -0.6291223504356456
000700 26 e4 a1 0e cb 0c c3 bf 52 11 cb 0c a7 71 f0 3f
       -0.14882791723701522 1.0277472018943468
000710 30 ec d2 51 d9 65 e7 3f 8c c8 27 37 07 8e a8 bf
       0.7311827276347511 -0.047958589060628304
000720 8e c8 1f d2 69 ec e6 bf 75 d7 2f 58 f1 1c 02 40
       -0.7163590530383475 2.264132203063975
000730 bd 6e 11 b1 07 72 11 c0 48 35 f0 d9 42 4b f2 bf
       -4.3613574664011 -1.143374301263366
000740 b0 62 1c 49 7b 8d 07 c0 ac d8 5f b9 d8 a4 f2 bf
       -2.9440828048503462 -1.1652457467257973
000750 ab 12 d0 25 8f 30 c0 bf c4 f4 69 d0 0a 8d 01 40
       -0.12648190828635583 2.193868282540821
000760 fd 32 72 28 47 cf ee 3f be cb e8 ee 44 7b e7 3f
       0.9628024854624467 0.7337975183676162
000770 f9 b4 7b 1b 39 61 f5 3f d7 dd fa f8 ed 5e 05 40
       1.336236102444046 2.6713523341711425
000780 d7 8a 7b 91 22 7f 05 40 75 64 dd c5 7b d0 c2 bf
       2.6870776525332576 -0.1469874111305988
000790 61 7b b6 65 99 5b 0a c0 82 1a 65 e1 7a 98 f0 bf
       -3.2947261759103843 -1.037226562928169
0007a0 9c 29 34 9f df 4a fc bf 76 05 52 9c cd 78 fc 3f
       -1.7682796687027809 1.7794929605737173
0007b0 3a 6d 18 04 96 74 00 40 f9 25 86 35 d2 54 e5 bf
       2.056926757808154 -0.6666041417494731
0007c0 1b 6b 15 39 1e 63 f7 3f c0 0c 55 5a 8e 1e e2 3f
       1.4616987447577177 0.566229988508347
0007d0 cc 73 a3 7f 08 6f f1 3f 0a fb 8d c1 b5 c6 fa bf
       1.0896077142599436 -1.673513179848387
0007e0 10 12 f5 c8 94 68 f6 bf b6 5a 6d 20 f5 3a c3 bf
       -1.4005325174231338 -0.15023674090726552
0007f0 50 63 89 7f 0f d9 f1 bf 3d ce 18 5c 70 bd f0 3f
       -1.1154932958508716 1.0462497327361142
