assignment1/svm_weights.npy (npy, 62928 bytes, 1 tensors)

array f8 [785, 10]
000000 dd 0a 72 18 e6 42 1b c0 9a ba a6 23 74 19 f9 bf
       -6.815330869637106 -1.5687142746570886
000010 98 09 8b 97 9d 6f 17 c0 7b 21 d5 fc 94 c4 32 40
       -5.85899960313909 18.76789837077511
000020 9b ef e8 24 e5 73 9a bf 18 2b 15 cd 94 cd ea 3f
       -0.025832729699899564 0.8375953679581896
000030 59 6f 29 6f 86 85 22 40 e9 2c ec 59 92 a3 f6 bf
       9.260791276748636 -1.4149344933128367
000040 c4 1c 98 ab 63 fe 28 c0 ee 76 2f 59 f3 35 e5 3f
       -12.496854173963932 0.6628357641127118
000050 09 08 62 d5 ec 7d fa 3f 7a 57 fd 0b 98 07 03 40
       1.6557434401770499 2.378707975071788
000060 20 9c d5 48 61 19 27 40 22 1f cd e2 7c 9d fd bf
       11.549570346904204 -1.8509491786407541
000070 28 21 bf a5 94 e0 29 c0 57 11 a9 fc 68 ec 0f c0
       -12.938634090024223 -3.9904346217246416
000080 0e db a7 4b f9 b6 31 c0 ce ca ce fa bc 51 08 c0
       -17.714741447906867 -3.0399112314565633
000090 8c 36 ba b8 0c 26 39 40 92 24 ea 8f b5 9e 0c c0
       25.1486316160795 -3.5774947398500183
0000a0 26 37 30 cf a6 c6 ea 3f 6e b0 78 67 d4 1c 23 c0
       0.836749462761621 -9.5563080153299
0000b0 f0 37 71 80 96 3d 3d 40 b2 07 03 c9 95 4b 01 c0
       29.240577724114644 -2.1619067863511754
0000c0 c2 52 c2 e4 7f 3a 31 c0 a1 f7 9d b9 7c b1 1c c0
       -17.22851400131436 -7.173327350870665
0000d0 fb 2c a2 cb f2 05 3e 40 81 e4 85 ba ff 2f 0b c0
       30.023236014455488 -3.3984369823561456
0000e0 16 29 e4 cf d7 27 31 c0 e2 d2 0c 30 56 60 10 c0
       -17.15563678093266 -4.094078779967022
0000f0 6a 4d de d6 e6 dc 28 40 c2 7c d2 db 44 5a 23 c0
       12.431448664318584 -9.676306600040679
000100 c5 7c c7 6c 89 82 1c c0 62 8e 82 44 a1 b5 1d c0
       -7.127477359462493 -7.427372999638097
000110 72 1b 2c e7 2d 7c 39 c0 cc a8 02 cc eb d5 1a c0
       -25.485075424450265 -6.708907306349101
000120 95 14 42 a3 79 2e ea bf e9 e1 fb 9e bf a9 f9 bf
       -0.8181732357631001 -1.603942509680673
000130 7e 19 c9 1a 3b 50 47 40 81 96 0a 5f f1 4e f2 bf
       46.62680373019519 -1.1442731583169066
000140 7c b3 3a 29 52 60 41 c0 e8 eb af 9a 32 95 3b 40
       -34.752507356321956 27.58280340952834
000150 fb e4 62 9f 8b 4f 21 40 53 49 c6 f0 d8 fb 1f 40
       8.655362110921933 7.99594474992985
000160 bf 25 a4 19 78 fa 4f 40 ab 32 fb a4 62 eb 32 c0
       63.95679016604435 -18.919473944976442
000170 e0 f7 13 be a7 97 0d c0 3d 61 0c 4f 0e a2 22 c0
       -3.699050412163146 -9.316515417348109
000180 e6 d5 51 ad 44 b7 3a c0 13 92 e7 ca bf 18 2f c0
       -26.715891678313618 -15.548338261382957
000190 a8 60 f0 36 08 64 1a 40 ac 18 a7 17 76 2d 36 40
       6.597687586232645 22.17758319692136
0001a0 44 27 a4 2d 7e 80 37 c0 d0 04 85 4a 69 d6 37 40
       -23.501925327850827 23.83754411456613
0001b0 ed 39 59 b9 9c 8d f7 bf 9f ee 1d fb a3 09 32 c0
       -1.4720732917954777 -18.03765840035214
0001c0 7c f2 f6 f6 61 f6 0f 40 23 eb cd 34 bb 6e 29 c0
       3.9953040403473192 -12.716272020470177
0001d0 57 41 9d df b6 81 29 40 0a af fa 5c 0e 11 2a c0
       12.753348339029499 -13.033312707520526
0001e0 23 71 36 0c 85 21 16 40 5f ee f3 66 cd 53 33 40
       5.5327340992192005 19.327352938226223
0001f0 a5 d6 19 09 ca 57 2f c0 27 8f cc af 7d fd 37 40
       -15.671463283924206 23.990199077073296
000200 a9 6d 36 2d 05 6d 18 c0 0f 3a 51 84 e5 66 37 c0
       -6.106465059706729 -23.40193964942051
000210 1c 06 84 10 f4 05 fd 3f 1b 8a f1 0e 66 b2 2f c0
       1.813953461184048 -15.848434893593597
000220 47 e5 2c 69 1b 12 3a 40 78 f7 66 c7 03 81 2f c0
       26.070730756245464 -15.751981955832647
000230 d1 87 de c8 08 9e 22 40 09 cd c6 86 61 dc 44 40
       9.308660771526691 41.72172627169682
000240 d8 c6 dd 0f 53 04 1a c0 03 06 0d 97 d2 97 33 40
       -6.50422310629957 19.593057099036752
000250 39 ce f5 4d 93 39 27 c0 ac c5 22 2d 02 6e 3c c0
       -11.61245196939045 -28.429720707883163
000260 10 89 21 cc d1 f0 f4 bf 9a cb 12 7c 52 e0 27 c0
       -1.308793828379354 -11.938129308027602
000270 e5 b7 ac e7 9a 93 2e 40 b8 6f 68 aa 17 43 3a c0
       15.288291206201345 -26.262079859254044
000280 61 9e de b6 f0 bd 3a 40 0f e7 03 97 8b f2 47 40
       26.741954259252797 47.894884945779374
000290 c6 43 78 99 64 e9 44 40 9d fa 5e 6a f0 e2 14 40
       41.823382552836435 5.2216202373953395
0002a0 78 73 43 1a 0f 2d 3e c0 72 23 23 e1 b8 e8 36 c0
       -30.176011697261373 -22.909071036413884
0002b0 99 6a 81 1c 77 dc 05 c0 99 55 74 ce 83 c0 12 c0
       -2.7326490618700743 -4.688002801752554
0002c0 71 c5 5e bc ab 73 45 c0 e9 7f b5 25 95 f7 31 c0
       -42.903678461337115 -17.96711955720085
0002d0 69 52 c0 67 87 31 38 40 8c 9d da 1b 7f 30 2e 40
       24.193472370580285 15.094719763218357
0002e0 26 18 b5 6a 88 a3 ab 3f f5 ac 5f 7d b0 b4 1f 40
       0.05398203184681476 7.926454504932953
0002f0 6d 55 7c 38 94 91 20 c0 b7 d5 aa d8 ac fa 34 c0
       -8.284333958795026 -20.979199926097603
000300 9e 60 9f 84 e0 c2 4c 40 7c 9d 95 de 2d 35 0f c0
       57.52247674734211 -3.9009663953217437
000310 6f 62 98 41 7d d7 4f c0 e6 0f 37 38 c0 c8 20 c0
       -63.68351001682901 -8.392091519090126
000320 de e9 a6 25 4b 3f 23 c0 a7 2b 01 ec 54 6f 48 40
       -9.623620201707066 48.8697791104999
000330 ce 6c b3 f0 85 f1 41 40 2d 1c 5c 0c ed 38 36 40
       35.8869000316714 22.222367069709595
000340 30 bd bf e7 cc 75 4a c0 86 2b 5a e2 d4 49 f9 bf
       -52.92031571256882 -1.580525287807832
000350 0c b6 a5 b3 34 7c 2d 40 7f 45 bf 28 05 c3 10 40
       14.742589582422646 4.190449368166241
000360 4f b5 59 34 40 a4 50 c0 d3 e2 a6 a3 21 85 12 40
       -66.56641873131342 4.630011136113086
000370 91 8e bc 7d 2e 41 2c 40 21 5f 67 32 72 d9 44 40
       14.127307824389648 41.69879751250688
000380 3b 12 5e f2 eb cf 45 40 25 ec 6d a0 d5 b6 22 40
       43.62438802331277 9.357098592203394
000390 44 ac 66 42 27 60 06 40 2f bb 3f cf c4 10 17 c0
       2.796949881323174 -5.766375768914073
0003a0 ec 9f 4a 48 0c 8c 50 c0 f1 30 b3 fc f8 96 aa bf
       -66.18824965751236 -0.05193307957378746
0003b0 c1 98 d6 89 84 fb 44 c0 31 c2 67 37 67 41 06 40
       -41.96498225191454 2.781935150960884
0003c0 fa 2b f3 fa 7d 0c 2b 40 06 53 03 69 cf c7 0f 40
       13.524398653205925 3.972563572324705
0003d0 ea 89 85 1f 7e 8e 50 c0 54 4b cd 77 ef f1 2e 40
       -66.22644794503108 15.47253012066873
0003e0 12 72 f1 bd 75 d5 42 40 9a 7e fb 15 35 15 2b c0
       37.66765569962821 -13.541420638036744
0003f0 83 b0 46 50 4e b7 4f 40 db d6 c8 43 66 37 10 c0
       63.43207744075428 -4.054101046689278
000400 c8 2e fa 73 48 2d 48 c0 da 6b 91 8d be ed fa bf
       -48.353773591193715 -1.6830430536272076
000410 66 f3 f2 fa fd 49 49 c0 4c 5f 57 01 2c 47 42 40
       -50.57806336272078 36.556030433332666
000420 81 a5 b6 e5 03 d4 f9 bf ce b5 0d be c0 cb f7 3f
       -1.614261529272284 1.487244360348416
000430 67 b4 ad 2a dc e9 50 40 55 eb ba 1b 81 ad 36 c0
       67.65406290973043 -22.677751286635004
000440 b0 9b db 93 0e f3 4b c0 79 c2 66 6c 4e 79 21 c0
       -55.89888237212233 -8.736926448387054
000450 02 2e 81 28 0d 6b 41 40 e6 9b cd 3e 4b b6 fe bf
       34.8363390570412 -1.9195053532837334
000460 a6 de 75 52 03 b6 40 c0 2c 01 4f 74 89 c9 31 40
       -33.421976382783484 17.787253636635043
000470 35 de f0 b8 be cc 3b 40 4e 44 2f a1 80 2e 45 c0
       27.799785193257964 -42.363300464705944
000480 cc 0f b3 6a 56 18 43 40 a7 f1 23 e7 68 13 42 c0
       38.19013723128555 -36.151638882208594
000490 0c 21 5b 37 f8 49 4a c0 cb 56 09 dc e6 94 32 c0
       -52.577887458321214 -18.58164763668064
0004a0 13 6a d3 65 54 1a 5a 40 fa ee 5a 9b a0 12 15 c0
       104.41140123029645 -5.2681907915355115
0004b0 7e 1e af 5c 6c 71 3e c0 32 91 bb 44 96 2f 20 40
       -30.443059723619164 8.092943332573302
0004c0 07 22 67 84 37 bf 42 c0 4c 3e 41 60 fb e0 f8 3f
       -37.493881750448104 1.5549272308307023
0004d0 36 3c 05 dd 64 e0 47 40 b1 bd fd 54 b4 b6 3e c0
       47.75307810550332 -30.713689147900087
0004e0 bc 4b 22 c6 8c 90 46 40 cf 2d a9 a5 db 1f 20 c0
       45.129296080347075 -8.062222649480558
0004f0 3a 23 37 9b f9 a1 e2 3f 6e 9b da d0 19 3f 10 40
       0.5822723418760696 4.06162191709778
000500 89 56 ba f3 ea 12 42 40 c7 32 07 da 39 61 3f 40
       36.14779516790902 31.37978899646512
000510 18 6d cc 82 94 59 0d c0 38 06 c9 15 fd aa 38 40
       -3.668740293372718 24.667924272134968
000520 fd d6 4b ae e9 da 25 40 98 69 dd 0d a7 e0 29 c0
       10.927564093358791 -12.938774522092714
000530 6f e4 f9 83 a3 fc 50 c0 20 eb e5 d5 6b 78 ff 3f
       -67.94748019603297 1.966899714984443
000540 ff 92 4c 67 88 f4 37 c0 62 43 c9 7b b7 96 11 40
       -23.955206352419733 4.397184309157497
000550 1a b9 22 03 81 80 21 40 18 4e 25 c4 d5 3e 3f 40
       8.750984285343794 31.245449313266448
000560 23 17 66 1b 42 20 4d 40 0c 6e 60 20 b3 90 45 40
       58.252017426346605 43.1304665060853
000570 16 35 87 fb af 7e 31 c0 57 81 af 2b 16 7d 12 40
       -17.494872780332194 4.622154886805524
000580 05 71 9d fd e5 02 53 c0 3b db 2d 03 b3 ba 2a c0
       -76.04528751731057 -13.364647006366445
000590 b7 29 db 02 7f a2 45 c0 d0 f2 d1 be 18 02 15 40
       -43.269501072896155 5.252047521175612
0005a0 87 32 d1 a0 df 04 3b 40 ac c4 87 91 7d 6d e4 bf
       27.01903729541166 -0.6383655397786661
0005b0 4c 88 5d 6b fc be 20 c0 cd ee 6a 26 7b b1 35 40
       -8.373019557158976 21.693285370928425
0005c0 76 ce a7 dd 05 1c 47 c0 c9 68 93 c3 9e f2 1e 40
       -46.2189290112846 7.736933761474753
0005d0 a0 59 1f 87 bf 09 44 40 64 f2 df 8d f6 4e 26 c0
       40.07615746527449 -11.154224809252987
0005e0 5d 71 19 29 0b 8f 45 c0 2f bd 20 6c 17 93 28 40
       -43.117528092787985 12.287288073536358
0005f0 47 5d c3 d7 2d dd 1d c0 47 65 25 5e c8 7a 3a 40
       -7.4659951889983125 26.479619869355954
000600 fe 11 b7 54 6e 9f 30 40 68 c1 50 a6 59 26 30 c0
       16.622777266211408 -16.14980544539995
000610 e8 42 b3 b8 34 8b ec 3f 45 37 24 51 2b 9b 2b 40
       0.891992913000732 13.803064857169042
000620 ab 9e 46 c4 08 f0 23 40 e2 b7 31 2f 26 e6 28 c0
       9.968816884632664 -12.44951007348931
000630 e7 13 b5 4c b8 f7 41 c0 e6 1b 07 18 58 5a 0d 40
       -35.9353118786019 3.6691133382005203
000640 33 3f eb 81 d3 b2 36 40 f6 db f1 49 40 41 46 40
       22.698539848264044 44.509774439902614
000650 f4 32 7d 20 93 87 14 40 0f c6 a8 07 02 a2 04 40
       5.132397182122748 2.57910543426329
000660 8c a5 c4 8a 65 7e 41 c0 c2 c7 a2 79 92 26 13 40
       -34.98747381784332 4.787668133316346
000670 f6 6d 8e 97 48 ba 12 40 82 d9 11 4c c9 17 2c c0
       4.681917541568955 -14.046457650355254
000680 00 e0 94 f5 d9 a4 38 c0 e0 b7 d9 69 bb ba 21 c0
       -24.643950795027195 -8.864711101366936
000690 c1 f1 16 d8 57 cb 1a 40 67 4d a6 b5 b7 96 40 40
       6.698577286148464 33.17748137111885
0006a0 73 19 5f 79 16 d8 08 c0 37 d1 58 43 89 2a 38 40
       -3.1055116159579312 24.16615696829214
0006b0 a6 8e 4e ea 27 17 03 c0 10 0e e1 0c 39 43 22 c0
       -2.3863066010688554 -9.131294634315992
0006c0 70 f3 ad c5 f1 0f 30 c0 26 b1 58 5a e6 2e 29 c0
       -16.06228290078019 -12.591601203276308
0006d0 1f 16 2d fd a1 18 38 c0 14 6a bd eb d2 24 10 40
       -24.09622175551169 4.035960849224029
0006e0 45 5f 4c 52 0e 66 40 c0 68 83 ef 62 b6 10 35 40
       -32.797312056819045 21.0652829966306
0006f0 53 22 3e d1 a7 f8 20 c0 00 18 24 0c 6c 49 0d c0
       -8.485655344805457 -3.6608506153597773
000700 d7 fd ba 06 6c 49 20 40 40 94 ff f7 85 04 28 40
       8.143402300191992 12.00883460039961
000710 52 a1 30 43 45 a3 02 c0 a0 e5 f3 34 4a 09 1f c0
       -2.329721951409888 -7.759072139154711
000720 44 7c 84 a1 82 01 17 c0 86 53 42 69 d6 4a 33 40
       -5.751474879943149 19.292334154789863
000730 51 bd c4 9b 4a 1f 40 c0 7c 95 e0 cd 24 a1 02 40
       -32.24446436983511 2.328683479706056
000740 b2 6a c9 53 43 8a 20 c0 19 fc f4 ec a2 b7 30 c0
       -8.270044916474351 -16.71732979756425
000750 55 1d 57 d9 2a 46 22 40 2c 18 7d 33 1a af 36 40
       9.137045661815742 22.683993547478323
000760 10 0e 6a db b5 47 26 40 82 7d f1 28 ef a2 21 c0
       11.140059334465178 -8.818230895499031
000770 33 f9 46 0d f9 de 13 40 a6 3a 5a df 4d 97 2f 40
       4.967746932465434 15.795515994800848
000780 21 ed b2 e1 ad 2e 41 40 6b de 41 30 be c5 49 c0
       34.36468144642482 -51.54486659256221
000790 0d df 77 a7 fa 09 43 c0 2c ec ff 3b 12 d1 2b c0
       -38.077961858302025 -13.908342242231889
0007a0 2f 11 fd d3 19 7a 33 c0 34 59 08 c6 a2 90 35 40
       -19.47695660522839 21.564983727491565
0007b0 3a d1 09 6a 5e 0d 38 40 ac c2 36 9a fc cf f3 3f
       24.052221896549987 1.2382780097943096
0007c0 8a fd f3 d1 7a 6e 3a 40 61 34 51 3d fc b1 2e 40
       26.431561586444822 15.347627559817
0007d0 79 50 6e 94 2b b9 28 40 ee 5a 2e 62 c6 2a 25 c0
       12.361660612550837 -10.583544796141236
0007e0 e0 a9 39 d2 c4 c4 2d c0 ac cf 59 63 ac dc 18 40
       -14.88431412652875 6.215501358372347
0007f0 ea 03 a3 48 8d 2a 14 c0 3f f9 0b 9f 21 2a 23 40
       -5.041554579686798 9.582287759982703
