assignment1/svm_weights.npy (npy, 496 bytes, 1 tensors)

array f8 [23, 2]
0	0xbfdcbabd00808970	-0.4488976006415646
1	0x3fe777fce627ec70	0.7333969588502338
2	0xbff13ba6b2bfbbcd	-1.0770632727032876
3	0x4006664b7386fda3	2.799948599392978
4	0xbfd923610b58353e	-0.3927843676363699
5	0x3f959ca230361526	0.02110532206781559
6	0xc00160c4c7cebd9c	-2.172250329014515
7	0x4010239a9d8e0ae7	4.03476949862918
8	0x40186880b13120c9	6.102053421615161
9	0xc0182d1a57ba944b	-6.044045801890273
10	0x400ee966fef1a22b	3.863965980290478
11	0xc01267dbca8fa115	-4.601424374596054
12	0x4032d9cd8d0a89c9	18.850792708466347
13	0xc0342d63ffaef646	-20.17730711003812
14	0xc038515fd6094c1a	-24.31786859251961
15	0x403680a5b1e66191	22.502528303857222
16	0x40123782c249abca	4.554209743258022
17	0xc0146f47831305d6	-5.108671234165248
18	0xc007112de051be4b	-2.8833882832475743
19	0x3ff0ab0b6d82ad5f	1.041758945250727
20	0x40321b4bf0a6eb87	18.10662750315853
21	0xc0311f5f590ef65f	-17.122548643258025
22	0x403859ca305005e8	24.350741405045397
23	0xc0396d8eabc68243	-25.42795823666007
24	0x3fcf08c5ca6eeda5	0.24245521912039894
25	0xbfe2c4862c444606	-0.5864897598823411
26	0x3f9c1b435f0712be	0.02744775073530791
27	0xbfe491c693f26fb2	-0.6427948846426175
28	0xbff6dd2889f2ee30	-1.42899373899753
29	0x3fe7106d2b03d259	0.7207551803717919
30	0xbfde9084ad913a4b	-0.47757069539958213
31	0x3ff785b2f3e25e54	1.4701413656929576
32	0xc03c39a919ca3668	-28.225236522548954
33	0x403b6001ab03f490	27.37502545210424
34	0xbfb518a3b1bcf3bf	-0.08240721787747328
35	0xbfcdea8903b5a03f	-0.23371994668127802
36	0xc034a110a57835e3	-20.629160253380075
37	0x40333d538faad060	19.239556292727116
38	0x4011fedec3813734	4.4988966510407415
39	0xc01596587ceffc58	-5.39682193007237
40	0x4005bbdd8c9e01d7	2.7167311654777495
41	0xbfffe9e2c982b2e7	-1.9946010467057762
42	0xbff94751d49a6265	-1.5799120240027602
43	0x3ff3fc78cc9a0265	1.2491386406183207
44	0x40210edb4c914ebe	8.529016869294875
45	0xc0248c358db9a898	-10.273846081651115
