assignment1/svm_weights.npy (npy, 496 bytes, 1 tensors)

array f8 [23, 2]
-0.23483475930743686 0.5085864260026838 -2.180205834762496 3.8380047580220866 -0.7872544207497736 0.4296165025456803 -2.9653776317586464 4.757535372094247
4.220601215987623 -4.164784982584818 2.9541035387694907 -3.6637025544959334 17.470940119685764 -18.747342044147747 -26.408661958264293 24.661900795885213
2.0595742321430777 -2.5930895209296705 -0.18536450765452175 -1.5866925679260748 23.011772260023523 -22.064869498085137 20.911845832740546 -21.948368041098504
1.0755117473827474 -1.406549502713279 2.045236434787973 -2.6373372555561514 0.5796109970391963 -1.261094031175082 -0.4595292399030103 1.4146030123594748
-29.834127841854595 29.01603567095267 1.1946050991227832 -1.49878975082298 -19.359003041600214 18.02189492764696 0.5523231768608722 -1.4163270299822681
5.643558215314592 -4.9487084102763985 0.23507894020001774 -0.5533565123186784 3.3144926003845514 -4.99340642285803
00000000: a640 98bd 100f cebf a6df 5b0a 5746 e03f
00000010: 8fd3 b6c1 0f71 01c0 2ec7 acd6 3bb4 0e40
00000020: f00d d82e 3031 e9bf b65b 1037 d67e db3f
00000030: ea8b 65e8 17b9 07c0 f9d4 425a b707 1340
00000040: aa7f 0049 e5e1 1040 7e4b fc64 bda8 10c0
00000050: 471a 4009 01a2 0740 4ea7 ee48 434f 0dc0
00000060: b86c 1c88 8f78 3140 558a e6ce 51bf 32c0
00000070: 4ddd f111 9e68 3ac0 fb85 9f54 72a9 3840
00000080: 20e9 150e 027a 0040 29f2 ffb7 a5be 04c0
00000090: 5d8f 1b31 06ba c7bf aec7 00bf 1763 f9bf
000000a0: 11cd bf81 0303 3740 9ac8 9449 9b10 36c0
000000b0: 529d 7eba 6ee9 3440 f416 793f c8f2 35c0
000000c0: 3c90 57ce 4b35 f13f d0bc 250d 3a81 f6bf
000000d0: 0e04 80eb a45c 0040 a916 6946 4419 05c0
000000e0: fced 955c 2c8c e23f 983e 51ef 702d f4bf
000000f0: 521b 3c54 ed68 ddbf 3083 aec4 36a2 f63f
00000100: d472 f966 89d5 3dc0 a74f eae9 1a04 3d40
00000110: 05e0 853c 1a1d f33f c3d5 35f6 0afb f7bf
00000120: 63d6 929f e75b 33c0 2631 eee7 9a05 3240
00000130: b116 aea7 a1ac e13f 386f 2388 46a9 f6bf
00000140: a864 bfec 0093 1640 234f ae37 7acb 13c0
00000150: d896 1114 1117 ce3f bbfe 6db7 18b5 e1bf
00000160: 9ae2 4bb2 1484 0a40 103f 8788 3ff9 13c0
