assignment1/svm_weights_best.npy (npy, 62928 bytes, 1 tensors)

array f8 [785, 10]
-31.642458080368126 -8.482017916362931 -32.633866186440756 -6.901713764013875 -0.6094213738510242 -3.163478009437842 117.9837541499328 -0.4817237209842804
-34.912866157714845 0.9750098485104537 8.696325350602342 3.94559258259038 13.541687739938236 -10.403465658312738 -19.69148263427077 -5.538293439043851
-6.620484089852237 -12.754246037082979 44.71549578533236 -16.12268108598347 4.868084189640319 -15.068174782301478 69.68558937135401 -4.513835351251065
-28.99963378634728 -11.901813994075464 61.53592033311143 -17.594786779587732 -33.988470853110236 -24.087847261724185 16.641784351314623 -6.146075433057287
-17.29838019077814 -15.905436823255915 -42.86783021139156 -17.150115067309255 3.8393747969830843 -3.253647052635573 80.77453733398741 1.2749707263706078
-68.75984078197875 52.14020501082158 36.39026112469163 8.880964787819472 114.949198403365 -41.738703470249334 26.198895955313095 -18.70282192672188
-85.03450337353647 -24.397697012118805 -0.04785453000397186 42.95198320256484 -42.22878308921651 39.735685956682936 7.021664766283941 -39.911760096039316
39.86645303630842 -28.809315817007953 6.332058167506571 -24.85172335318128 4.311052405036175 56.97697724653797 -47.79739410866768 66.08957291726317
-11.866121542064667 -42.58356073052023 -32.83511792736048 -33.96593318850637 74.79786882241697 -33.13175347162778 38.18169883239333 104.5931092706129
-13.78062526977105 51.22368334942057 -27.210093788822853 -60.39772230493054 -36.93896795848194 -21.27512517223122 10.60718818912465 -45.01712510700189
79.85534826514396 116.9083090333506 55.66441596935805 1.7709733451544434 -49.69149865794207 -53.07457159725752 -7.430416871437469 -9.061702924728783
-103.87379250957208 -31.037354244948517 67.7915496652752 53.75418546025437 3.7673564706860376 16.135971778196666 -37.57864830676668 -51.462513244611955
118.13429368431531 -4.960418827081524 -149.88534897267084 -15.740119769770725 -22.170091241839405 108.65029322486033 124.0560992704579 63.60363324668679
-131.65361089047374 -9.775763694309632 0.9936449371092655 9.225476831281341 -153.1005873538145 10.156427460757616 31.696986727871835 106.74462045129413
126.64379055425299 47.521341128965645 21.849929497235813 -18.64956853209673 -208.87097417211 2.5119624483155416 -117.00227673803236 7.59456628430712
-0.7874875245122537 26.46044713627092 -134.75814814908472 37.89212997632531 107.17374902336059 -46.314287678178644 135.4516370143937 -10.797874345818085
-111.16710357272939 -3.132583935947826 -115.28360883645412 82.14412442407617 2.080530975147405 -5.276893025071386 170.84670122063773 -61.66529254177442
-131.03225137628993 -21.378796424159844 80.92940196311622 -1.4506894710824991 -88.86808388604183 54.798169979873855 59.19721667974117 -86.1320657637973
122.31710786641686 -85.8686151127056 -145.83910123190992 -33.43113728045533 207.5519865428031 -3.7426107006805482 -73.88570566540713 29.70652395964802
-87.83978598755161 7.945551700141852 124.41801035221091 -71.09273816316873 81.89311778719721 -18.942502171879283 0.4244450965315104 7.417971036077231
76.88917104098911 81.22104005973947 10.491308879032287 74.60223131326794 47.27255251475682 -30.127002683661047 -199.7446224417401 3.213140743130573
-75.32819027100712 11.605438839524455 33.15759566300047 95.7299993770451 176.81073989121938 102.55594894334241 -49.51370328839758 13.064394557156195
-255.77522740413622 -19.38599489853696 -113.03105220292127 16.492279050333988 68.53673298869367 25.71137172213048 -3.116628607488359 38.723561327558826
-118.18883559062577 17.86124437985492 64.62085897689423 -16.40438679603223 -105.60312062020229 27.792119764955952 4.939826876117775 77.33895581346172
18.741155054146162 -42.33351410970714 -24.177317983115376 25.08843545022917 46.608596009808394 -25.42940566593521 -91.52047322744771 10.688738245101728
48.357172682721 115.06347986666363 4.584837919268407 -14.325407509751935 -76.23948589181235 19.41503754177094 -13.521798094922783 -31.72296763690289
-48.28716997420634 -3.143984982263386 20.087593348328006 79.25400098424792 -1.1791350373313325 56.454503009494054 -17.12870837335027 -10.394622402826647
-55.81790780266848 -26.947647602010267 -66.5330463723937 22.27357003811593 -69.62473300197118 36.89035189941249 -41.61766012685802 8.225763746706827
23.024765276352767 17.089634556145036 2.830289675620135 -19.347532561325586 -3.183094816334969 45.68552960930377 -65.23343665511682 9.371589056315546
-41.10377954020369 -41.354183939804486 24.49884188601263 42.39288991618988 44.565330001712866 -20.956787250262987 20.01198070169253 27.80784531940078
73.08662009053306 -83.17413892202859 -66.23824828616078 -26.880179174924635 -35.79611631645213 37.21346198212308 39.15477267199579 1.7304471552837632
32.9674867596705 27.93504032799235 27.893260762979608 -17.24679853321104 -30.056334292708627 6.545580985517728 -9.829985747563757 22.653520194592645
00000000: 673b fc21 78a4 3fc0 ceba 650d cbf6 20c0
00000010: d266 f686 2251 40c0 ae2b 5bda 5a9b 1bc0
00000020: a18d c540 6180 e3bf a834 018f cd4e 09c0
00000030: 0151 f7d3 f57e 5d40 386f d5ba 8fd4 debf
00000040: 5681 5acc d874 41c0 862b 94da 4733 ef3f
00000050: f36c a0c1 8464 2140 e286 0cd8 9290 0f40
00000060: 965b 6f18 5815 2b40 4f06 ff0c 93ce 24c0
00000070: e4f1 8301 05b1 33c0 fc60 3165 3627 16c0
00000080: 2c6a 662e 607b 1ac0 68d1 5c89 2c82 29c0
00000090: d336 ab5d 955b 4640 0323 1407 681f 30c0
000000a0: 26b8 d20f eb78 1340 25cb 18ce e722 2ec0
000000b0: d81c 3eb2 e06b 5140 a59b b4da 2a0e 12c0
000000c0: 9656 f4ff e7ff 3cc0 2e42 5790 bacd 27c0
000000d0: cdfc 9709 99c4 4e40 276c 46f2 4398 31c0
000000e0: 2f94 8136 86fe 40c0 0626 7c28 7d16 38c0
000000f0: 1bfb affa 4ba4 3040 9beb 5ecc 9495 18c0
00000100: 962a e9a4 624c 31c0 e2f4 506a 95cf 2fc0
00000110: 2a34 740f 156f 45c0 e7ba e8f0 6d26 31c0
00000120: 2a08 3122 0ab7 0e40 645f 1e1b 7807 0ac0
00000130: 72c0 0905 9231 5440 f0e7 51b4 4766 f43f
00000140: 0331 3b3b a130 51c0 651b e03c f211 4a40
00000150: b1b9 9713 f431 4240 7439 11d1 0dc3 2140
00000160: 8ff7 a8aa bfbc 5c40 d014 d7d5 8dde 44c0
00000170: 5d60 67d8 ea32 3a40 a42e 4623 ecb3 32c0
00000180: 363c a34d 3542 55c0 66c4 ac78 cf65 38c0
00000190: bc3e aa92 6380 a8bf bdad e895 da79 4540
000001a0: 0908 a7c3 481d 45c0 330a 1af5 2ade 4340
000001b0: f8a8 da49 2f16 1c40 b224 098e b4f4 43c0
000001c0: 773b dfee e7ee 4340 472f 4652 2fcf 3cc0
000001d0: dd3d 670e 0754 1940 2f27 ab8a 0ada 38c0
000001e0: dce3 8b85 843e 1140 8a68 2597 0d7d 4c40
000001f0: 1960 9902 11e6 47c0 2b90 0b90 bb85 5040
00000200: c30e 6348 74bb 27c0 3a68 361e b24a 45c0
00000210: 8528 ed24 e56a 40c0 c060 dfb2 a3fb 40c0
00000220: dab1 6448 10b3 5240 4de3 394c dd90 40c0
00000230: e56c 47e8 4117 4340 280f 9680 f525 5a40
00000240: 1832 881d ae8f 2bc0 e635 efa7 a19c 4940
00000250: 3e16 e0b4 c835 3bc0 8048 8290 e832 4ec0
00000260: fed5 201a 3078 42c0 1a0a 719a 6e46 35c0
00000270: 9c9d cd5e e136 2540 be41 cf27 3182 46c0
00000280: f45e a606 bef6 5340 be39 36bc 213a 5d40
00000290: 9faa 1d95 0bd5 4b40 b86a 7825 e855 fc3f
000002a0: 678b 2c07 83d8 48c0 3cb7 e58f 8b89 4ac0
000002b0: dce1 4933 bfb8 1dc0 2b8e 9786 971f 22c0
000002c0: 8506 6b37 ecf7 59c0 b06b 3c0c 9009 3fc0
000002d0: 1261 edbf a8f2 5040 a374 2f26 89e0 4a40
000002e0: 9dc3 0fca 8b23 0e40 9d88 e40b cf22 3040
000002f0: 6eb9 d025 11ca 42c0 a0c9 4da2 33bb 49c0
00000300: 648c 8944 9888 5d40 7e1c 7308 78d7 13c0
00000310: 6465 5ec7 54bc 62c0 9e93 7cfa f07a 2fc0
00000320: 4909 8119 8b2b 36c0 7965 7967 9e29 5b40
00000330: 8efc 6421 9703 5f40 27a6 aeda 43cd 4f40
00000340: 9ddc 6261 ea74 60c0 d0f7 20e6 308d 23c0
00000350: 780c 9777 f0cb ef3f d8b7 00b3 7173 2240
00000360: c860 f802 3823 63c0 f24c 9842 1750 2440
00000370: a1f4 e1b8 6db2 3f40 6d8f 89dc a7af 5a40
00000380: 61ff 4bdd 33a9 5f40 cc7b 5d4e bbc2 4740
00000390: 9688 c2fa 94d9 3540 bedd 911f 4aa6 32c0
000003a0: f11b 3a05 df1b 6ac0 dc5c a2c4 7f18 0440
000003b0: ffd8 544d 2540 5dc0 009d e9fb d560 1e40
000003c0: 5838 7909 1933 e9bf 09d2 0fdd df75 3a40
000003d0: f03a e8bf 42d8 60c0 9a0c a850 31f2 4240
000003e0: ec42 39b4 1ecb 5a40 12a8 2194 3a28 47c0
000003f0: 7dcf 77cf 73ee 6040 4f36 7bfc 8298 25c0
00000400: b8fa 2ed3 b1ca 5bc0 8bf7 a62a 880f 09c0
00000410: 555b ada5 26d2 5cc0 91fd a555 3989 5440
00000420: b295 846c eda4 0040 3eb0 5cd8 891b 15c0
00000430: ea83 282d 185b 6540 d098 564e 28d5 4ec0
00000440: 52cd 0934 0861 60c0 b89b 6dcd f860 35c0
00000450: 081b 5f52 7b3b 5440 c536 af29 0636 f7bf
00000460: fe2e b7af 8e37 56c0 851a 146f 2a66 4b40
00000470: 65db 6a65 3e99 4d40 901b f6c3 7388 55c0
00000480: 25e4 ca7e 4b94 5e40 7178 d763 9777 55c0
00000490: c4a2 d3ea d93a 62c0 2ed2 a381 2fb7 40c0
000004a0: 7ca5 aedf a9f1 6940 2aa9 08e1 ddf0 0dc0
000004b0: 8eb3 d066 af78 52c0 5787 14c1 deb4 3d40
000004c0: 160b ba0d bff5 55c0 5425 73b4 3ec8 1f40
000004d0: a908 7eae c01a 5f40 a779 0c6c efc5 51c0
000004e0: 3adf 81d7 2879 5440 68a1 84d2 47f1 32c0
000004f0: c239 23c4 1b2a db3f fd81 6a99 00ac 1d40
00000500: 4e66 a72d e838 5340 f6eb 3485 254e 5440
00000510: 2f5b 5fd6 8cfb 2440 3ac7 34f5 8aa6 5240
00000520: 5ba9 3400 e3a2 4740 14d4 743f 8320 3ec0
00000530: 8664 71f2 d3f7 68c0 1087 4922 83b4 0940
00000540: d235 c411 01d5 52c0 b1f8 5e14 fc35 2740
00000550: 0b4a 3d18 2c94 4040 95a0 4e4f b8ee 5740
00000560: 32cb c894 f119 6640 b179 e0aa 94a3 5940
00000570: f4c1 8307 c1c1 48c0 720d ca52 f820 2a40
00000580: 4c77 b3a9 cef8 6fc0 9ba3 c98f d062 33c0
00000590: 0001 61c2 fc41 5cc0 bfb0 f5ff 057e 3040
000005a0: ea47 52d5 5922 5140 80d9 0975 1cb6 3940
000005b0: 3186 b7fa daee 08c0 fc41 57a8 9d5c 4340
000005c0: bf83 dfe1 158c 5dc0 3757 fd82 7adc 3140
000005d0: 144c 4a27 bc27 5040 85e4 9fe4 8567 30c0
000005e0: f9d3 3a87 9966 5ac0 4300 655c c8ca 3b40
000005f0: 8d4f 03fa 61c2 1340 dc66 b973 b155 5340
00000600: a8d2 6e56 bcbd 3240 2ef9 2097 b02a 45c0
00000610: 2579 1ab6 642d 38c0 948a a6b4 a316 3940
00000620: 344d 5b79 e64d 4740 a9e8 9b87 ed6d 39c0
00000630: 3795 f06e 4fe1 56c0 c66e 9c4c a260 2540
00000640: d8a7 9fd5 b72d 4840 95d1 db0d 10c4 5c40
00000650: bddf 62c0 df56 1240 c583 28d0 9ba6 2cc0
00000660: ff4b a2bc 530f 53c0 b784 7ce6 3f6a 3340
00000670: ee9d b11e 290b 2bc0 7790 3468 14b9 3fc0
00000680: 01ce 57fc c124 48c0 b67d 2f99 e126 09c0
00000690: 7a6a 8684 6c16 3440 c91f 588d 41d0 5340
000006a0: 357e 6eb3 bcdd f2bf f3da 9427 2d3a 4c40
000006b0: c242 2e08 f320 31c0 9bd1 94f2 0bca 24c0
000006c0: 5bcd ef33 b1e8 4bc0 55c4 8208 99f2 3ac0
000006d0: ac2b 886e 1da2 50c0 97df 9eaf 0846 3640
000006e0: ae0c 21a0 fb67 51c0 3df4 100d f771 4240
000006f0: ff72 ae7c 0fcf 44c0 dd74 494e 9773 2040
00000700: f402 6404 5706 3740 023c 4f4a f216 3140
00000710: 9df5 d7e9 6ea4 0640 4230 d9e4 f758 33c0
00000720: 7ace 416a fa76 09c0 1e33 2a6f bfd7 4640
00000730: 85da 4ba0 f04e 50c0 82da b8eb 40be 2240
00000740: 9a95 e1a5 488d 44c0 461d 3be6 55ad 44c0
00000750: 994c 121a b47f 3840 5b7b 7e37 4a32 4540
00000760: f666 c6bb 5c48 4640 fb1b 5d02 f0f4 34c0
00000770: daf3 d12a 1103 3440 930d 6bf3 cece 3b40
00000780: 0701 fe2e 8b45 5240 b4c4 9317 25cb 54c0
00000790: df58 bd75 3f8f 50c0 eceb 226c 53e1 3ac0
000007a0: a87c b323 e7e5 41c0 3814 e4b8 529b 4240
000007b0: aa44 4697 cf93 4340 6366 365b e9af fb3f
000007c0: 850c 2c9b d67b 4040 132b 8dcd 5eef 3b40
000007d0: 24cc c3bc ace4 3b40 9ad7 4c30 2e3f 31c0
000007e0: acd3 98ec 6b0e 3ec0 ed78 28c8 ac2e 1a40
000007f0: 6add 53e4 f3a8 23c0 0c0d 7719 4da7 3640
